{"format": "layers-model", "generatedBy": "keras v2.2.4-tf", "convertedBy": "TensorFlow.js Converter v2.0.1", "modelTopology": {"keras_version": "2.2.4-tf", "backend": "tensorflow", "model_config": {"class_name": "Model", "config": {"name": "model", "layers": [{"class_name": "InputLayer", "config": {"batch_input_shape": [1, null, 3], "dtype": "float32", "sparse": false, "name": "input_1"}, "name": "input_1", "inbound_nodes": []}, {"class_name": "Conv1D", "config": {"name": "conv1d", "trainable": true, "dtype": "float32", "filters": 48, "kernel_size": [5], "strides": [1], "padding": "same", "data_format": "channels_last", "dilation_rate": [1], "activation": "linear", "use_bias": true, "kernel_initializer": {"class_name": "GlorotUniform", "config": {"seed": null}}, "bias_initializer": {"class_name": "Zeros", "config": {}}, "kernel_regularizer": null, "bias_regularizer": null, "activity_regularizer": null, "kernel_constraint": null, "bias_constraint": null}, "name": "conv1d", "inbound_nodes": [[["input_1", 0, 0, {}]]]}, {"class_name": "BatchNormalization", "config": {"name": "batch_normalization", "trainable": true, "dtype": "float32", "axis": [2], "momentum": 0.99, "epsilon": 0.001, "center": true, "scale": true, "beta_initializer": {"class_name": "Zeros", "config": {}}, "gamma_initializer": {"class_name": "Ones", "config": {}}, "moving_mean_initializer": {"class_name": "Zeros", "config": {}}, "moving_variance_initializer": {"class_name": "Ones", "config": {}}, "beta_regularizer": null, "gamma_regularizer": null, "beta_constraint": null, "gamma_constraint": null}, "name": "batch_normalization", "inbound_nodes": [[["conv1d", 0, 0, {}]]]}, {"class_name": "Dropout", "config": {"name": "dropout", "trainable": true, "dtype": "float32", "rate": 0.3, "noise_shape": null, "seed": null}, "name": "dropout", "inbound_nodes": [[["batch_normalization", 0, 0, {}]]]}, {"class_name": "Conv1D", "config": {"name": "conv1d_1", "trainable": true, "dtype": "float32", "filters": 64, "kernel_size": [5], "strides": [1], "padding": "same", "data_format": "channels_last", "dilation_rate": [1], "activation": "linear", "use_bias": true, "kernel_initializer": {"class_name": "GlorotUniform", "config": {"seed": null}}, "bias_initializer": {"class_name": "Zeros", "config": {}}, "kernel_regularizer": null, "bias_regularizer": null, "activity_regularizer": null, "kernel_constraint": null, "bias_constraint": null}, "name": "conv1d_1", "inbound_nodes": [[["dropout", 0, 0, {}]]]}, {"class_name": "BatchNormalization", "config": {"name": "batch_normalization_1", "trainable": true, "dtype": "float32", "axis": [2], "momentum": 0.99, "epsilon": 0.001, "center": true, "scale": true, "beta_initializer": {"class_name": "Zeros", "config": {}}, "gamma_initializer": {"class_name": "Ones", "config": {}}, "moving_mean_initializer": {"class_name": "Zeros", "config": {}}, "moving_variance_initializer": {"class_name": "Ones", "config": {}}, "beta_regularizer": null, "gamma_regularizer": null, "beta_constraint": null, "gamma_constraint": null}, "name": "batch_normalization_1", "inbound_nodes": [[["conv1d_1", 0, 0, {}]]]}, {"class_name": "Dropout", "config": {"name": "dropout_1", "trainable": true, "dtype": "float32", "rate": 0.3, "noise_shape": null, "seed": null}, "name": "dropout_1", "inbound_nodes": [[["batch_normalization_1", 0, 0, {}]]]}, {"class_name": "Conv1D", "config": {"name": "conv1d_2", "trainable": true, "dtype": "float32", "filters": 96, "kernel_size": [3], "strides": [1], "padding": "same", "data_format": "channels_last", "dilation_rate": [1], "activation": "linear", "use_bias": true, "kernel_initializer": {"class_name": "GlorotUniform", "config": {"seed": null}}, "bias_initializer": {"class_name": "Zeros", "config": {}}, "kernel_regularizer": null, "bias_regularizer": null, "activity_regularizer": null, "kernel_constraint": null, "bias_constraint": null}, "name": "conv1d_2", "inbound_nodes": [[["dropout_1", 0, 0, {}]]]}, {"class_name": "BatchNormalization", "config": {"name": "batch_normalization_2", "trainable": true, "dtype": "float32", "axis": [2], "momentum": 0.99, "epsilon": 0.001, "center": true, "scale": true, "beta_initializer": {"class_name": "Zeros", "config": {}}, "gamma_initializer": {"class_name": "Ones", "config": {}}, "moving_mean_initializer": {"class_name": "Zeros", "config": {}}, "moving_variance_initializer": {"class_name": "Ones", "config": {}}, "beta_regularizer": null, "gamma_regularizer": null, "beta_constraint": null, "gamma_constraint": null}, "name": "batch_normalization_2", "inbound_nodes": [[["conv1d_2", 0, 0, {}]]]}, {"class_name": "Dropout", "config": {"name": "dropout_2", "trainable": true, "dtype": "float32", "rate": 0.3, "noise_shape": null, "seed": null}, "name": "dropout_2", "inbound_nodes": [[["batch_normalization_2", 0, 0, {}]]]}, {"class_name": "Masking", "config": {"name": "masking", "trainable": true, "dtype": "float32", "mask_value": 0}, "name": "masking", "inbound_nodes": [[["dropout_2", 0, 0, {}]]]}, {"class_name": "Bidirectional", "config": {"name": "bidirectional", "trainable": true, "dtype": "float32", "layer": {"class_name": "LSTM", "config": {"name": "lstm", "trainable": true, "dtype": "float32", "return_sequences": true, "return_state": false, "go_backwards": false, "stateful": false, "unroll": false, "time_major": false, "units": 128, "activation": "tanh", "recurrent_activation": "sigmoid", "use_bias": true, "kernel_initializer": {"class_name": "GlorotUniform", "config": {"seed": null}}, "recurrent_initializer": {"class_name": "GlorotUniform", "config": {"seed": null}}, "bias_initializer": {"class_name": "Zeros", "config": {}}, "unit_forget_bias": true, "kernel_regularizer": null, "recurrent_regularizer": null, "bias_regularizer": null, "activity_regularizer": null, "kernel_constraint": null, "recurrent_constraint": null, "bias_constraint": null, "dropout": 0.3, "recurrent_dropout": 0.0, "implementation": 2}}, "merge_mode": "concat"}, "name": "bidirectional", "inbound_nodes": [[["masking", 0, 0, {}]]]}, {"class_name": "Bidirectional", "config": {"name": "bidirectional_1", "trainable": true, "dtype": "float32", "layer": {"class_name": "LSTM", "config": {"name": "lstm_1", "trainable": true, "dtype": "float32", "return_sequences": true, "return_state": false, "go_backwards": false, "stateful": false, "unroll": false, "time_major": false, "units": 128, "activation": "tanh", "recurrent_activation": "sigmoid", "use_bias": true, "kernel_initializer": {"class_name": "GlorotUniform", "config": {"seed": null}}, "recurrent_initializer": {"class_name": "GlorotUniform", "config": {"seed": null}}, "bias_initializer": {"class_name": "Zeros", "config": {}}, "unit_forget_bias": true, "kernel_regularizer": null, "recurrent_regularizer": null, "bias_regularizer": null, "activity_regularizer": null, "kernel_constraint": null, "recurrent_constraint": null, "bias_constraint": null, "dropout": 0.3, "recurrent_dropout": 0.0, "implementation": 2}}, "merge_mode": "concat"}, "name": "bidirectional_1", "inbound_nodes": [[["bidirectional", 0, 0, {}]]]}, {"class_name": "Bidirectional", "config": {"name": "bidirectional_2", "trainable": true, "dtype": "float32", "layer": {"class_name": "LSTM", "config": {"name": "lstm_2", "trainable": true, "dtype": "float32", "return_sequences": false, "return_state": false, "go_backwards": false, "stateful": false, "unroll": false, "time_major": false, "units": 128, "activation": "tanh", "recurrent_activation": "sigmoid", "use_bias": true, "kernel_initializer": {"class_name": "GlorotUniform", "config": {"seed": null}}, "recurrent_initializer": {"class_name": "GlorotUniform", "config": {"seed": null}}, "bias_initializer": {"class_name": "Zeros", "config": {}}, "unit_forget_bias": true, "kernel_regularizer": null, "recurrent_regularizer": null, "bias_regularizer": null, "activity_regularizer": null, "kernel_constraint": null, "recurrent_constraint": null, "bias_constraint": null, "dropout": 0.3, "recurrent_dropout": 0.0, "implementation": 2}}, "merge_mode": "concat"}, "name": "bidirectional_2", "inbound_nodes": [[["bidirectional_1", 0, 0, {}]]]}, {"class_name": "Dense", "config": {"name": "dense", "trainable": true, "dtype": "float32", "units": 345, "activation": "softmax", "use_bias": true, "kernel_initializer": {"class_name": "GlorotUniform", "config": {"seed": null}}, "bias_initializer": {"class_name": "Zeros", "config": {}}, "kernel_regularizer": null, "bias_regularizer": null, "activity_regularizer": null, "kernel_constraint": null, "bias_constraint": null}, "name": "dense", "inbound_nodes": [[["bidirectional_2", 0, 0, {}]]]}], "input_layers": [["input_1", 0, 0]], "output_layers": [["dense", 0, 0]]}}, "training_config": {"loss": "sparse_categorical_crossentropy", "metrics": ["accuracy"], "weighted_metrics": null, "sample_weight_mode": null, "loss_weights": null, "optimizer_config": {"class_name": "Adam", "config": {"name": "Adam", "learning_rate": 0.0010000000474974513, "decay": 0.0, "beta_1": 0.8999999761581421, "beta_2": 0.9990000128746033, "epsilon": 1e-07, "amsgrad": false}}}}, "weightsManifest": [{"paths": ["group1-shard1of1.bin"], "weights": [{"name": "batch_normalization/gamma", "shape": [48], "dtype": "float32", "quantization": {"dtype": "uint8", "min": 1.144599437713623, "scale": 0.004747092490102731, "original_dtype": "float32"}}, {"name": "batch_normalization/beta", "shape": [48], "dtype": "float32", "quantization": {"dtype": "uint8", "min": -0.1410692383261288, "scale": 0.0037123483770033893, "original_dtype": "float32"}}, {"name": "batch_normalization/moving_mean", "shape": [48], "dtype": "float32", "quantization": {"dtype": "uint8", "min": -0.5189082377097186, "scale": 0.003459388251398124, "original_dtype": "float32"}}, {"name": "batch_normalization/moving_variance", "shape": [48], "dtype": "float32", "quantization": {"dtype": "uint8", "min": 0.15613870322704315, "scale": 0.005412745767948674, "original_dtype": "float32"}}, {"name": "batch_normalization_1/gamma", "shape": [64], "dtype": "float32", "quantization": {"dtype": "uint8", "min": 0.9589289426803589, "scale": 0.0065818594951255645, "original_dtype": "float32"}}, {"name": "batch_normalization_1/beta", "shape": [64], "dtype": "float32", "quantization": {"dtype": "uint8", "min": -0.9734687057195925, "scale": 0.007605224263434317, "original_dtype": "float32"}}, {"name": "batch_normalization_1/moving_mean", "shape": [64], "dtype": "float32", "quantization": {"dtype": "uint8", "min": -28.361840371524586, "scale": 0.21486242705700445, "original_dtype": "float32"}}, {"name": "batch_normalization_1/moving_variance", "shape": [64], "dtype": "float32", "quantization": {"dtype": "uint8", "min": 3506.880859375, "scale": 127.34646905637256, "original_dtype": "float32"}}, {"name": "batch_normalization_2/gamma", "shape": [96], "dtype": "float32", "quantization": {"dtype": "uint8", "min": 0.003777229692786932, "scale": 0.00032470976641657307, "original_dtype": "float32"}}, {"name": "batch_normalization_2/beta", "shape": [96], "dtype": "float32", "quantization": {"dtype": "uint8", "min": -0.022332966576019922, "scale": 0.00018767198803378086, "original_dtype": "float32"}}, {"name": "batch_normalization_2/moving_mean", "shape": [96], "dtype": "float32", "quantization": {"dtype": "uint8", "min": -39.33839510749368, "scale": 0.30494879928289675, "original_dtype": "float32"}}, {"name": "batch_normalization_2/moving_variance", "shape": [96], "dtype": "float32", "quantization": {"dtype": "uint8", "min": 3596.452880859375, "scale": 107.61673655790442, "original_dtype": "float32"}}, {"name": "bidirectional/forward_lstm/kernel", "shape": [96, 512], "dtype": "float32", "quantization": {"dtype": "uint8", "min": -21.036473771637564, "scale": 0.16964898202933518, "original_dtype": "float32"}}, {"name": "bidirectional/forward_lstm/recurrent_kernel", "shape": [128, 512], "dtype": "float32", "quantization": {"dtype": "uint8", "min": -10.062320903703277, "scale": 0.07923087325750612, "original_dtype": "float32"}}, {"name": "bidirectional/forward_lstm/bias", "shape": [512], "dtype": "float32", "quantization": {"dtype": "uint8", "min": -3.4251596413406675, "scale": 0.02740127713072534, "original_dtype": "float32"}}, {"name": "bidirectional/backward_lstm/kernel", "shape": [96, 512], "dtype": "float32", "quantization": {"dtype": "uint8", "min": -16.669357008092543, "scale": 0.13125477959127987, "original_dtype": "float32"}}, {"name": "bidirectional/backward_lstm/recurrent_kernel", "shape": [128, 512], "dtype": "float32", "quantization": {"dtype": "uint8", "min": -7.3489822163301355, "scale": 0.06023755915024701, "original_dtype": "float32"}}, {"name": "bidirectional/backward_lstm/bias", "shape": [512], "dtype": "float32", "quantization": {"dtype": "uint8", "min": -4.141511038237927, "scale": 0.03090679879282035, "original_dtype": "float32"}}, {"name": "bidirectional_1/forward_lstm_1/kernel", "shape": [256, 512], "dtype": "float32", "quantization": {"dtype": "uint8", "min": -7.389999238182517, "scale": 0.06316238665113262, "original_dtype": "float32"}}, {"name": "bidirectional_1/forward_lstm_1/recurrent_kernel", "shape": [128, 512], "dtype": "float32", "quantization": {"dtype": "uint8", "min": -6.328381931080537, "scale": 0.052736516092337815, "original_dtype": "float32"}}, {"name": "bidirectional_1/forward_lstm_1/bias", "shape": [512], "dtype": "float32", "quantization": {"dtype": "uint8", "min": -2.906952540079753, "scale": 0.021374651029998182, "original_dtype": "float32"}}, {"name": "bidirectional_1/backward_lstm_1/kernel", "shape": [256, 512], "dtype": "float32", "quantization": {"dtype": "uint8", "min": -5.78792547899134, "scale": 0.04705630470724667, "original_dtype": "float32"}}, {"name": "bidirectional_1/backward_lstm_1/recurrent_kernel", "shape": [128, 512], "dtype": "float32", "quantization": {"dtype": "uint8", "min": -6.31967607385972, "scale": 0.05355657689711627, "original_dtype": "float32"}}, {"name": "bidirectional_1/backward_lstm_1/bias", "shape": [512], "dtype": "float32", "quantization": {"dtype": "uint8", "min": -3.0779205733654544, "scale": 0.0234955768959195, "original_dtype": "float32"}}, {"name": "bidirectional_2/forward_lstm_2/kernel", "shape": [256, 512], "dtype": "float32", "quantization": {"dtype": "uint8", "min": -5.435549908058316, "scale": 0.04279960557526233, "original_dtype": "float32"}}, {"name": "bidirectional_2/forward_lstm_2/recurrent_kernel", "shape": [128, 512], "dtype": "float32", "quantization": {"dtype": "uint8", "min": -4.539661704792696, "scale": 0.036907818738152, "original_dtype": "float32"}}, {"name": "bidirectional_2/forward_lstm_2/bias", "shape": [512], "dtype": "float32", "quantization": {"dtype": "uint8", "min": -2.9732270334281172, "scale": 0.02123733595305798, "original_dtype": "float32"}}, {"name": "bidirectional_2/backward_lstm_2/kernel", "shape": [256, 512], "dtype": "float32", "quantization": {"dtype": "uint8", "min": -4.997843843347886, "scale": 0.046276331882850796, "original_dtype": "float32"}}, {"name": "bidirectional_2/backward_lstm_2/recurrent_kernel", "shape": [128, 512], "dtype": "float32", "quantization": {"dtype": "uint8", "min": -5.116668588974897, "scale": 0.03628842970904182, "original_dtype": "float32"}}, {"name": "bidirectional_2/backward_lstm_2/bias", "shape": [512], "dtype": "float32", "quantization": {"dtype": "uint8", "min": -3.216143853991639, "scale": 0.023137725568285174, "original_dtype": "float32"}}, {"name": "conv1d/kernel", "shape": [5, 3, 48], "dtype": "float32", "quantization": {"dtype": "uint8", "min": -14.550353977726955, "scale": 0.11456971636005477, "original_dtype": "float32"}}, {"name": "conv1d/bias", "shape": [48], "dtype": "float32", "quantization": {"dtype": "uint8", "min": -0.523463799906712, "scale": 0.003443840788859947, "original_dtype": "float32"}}, {"name": "conv1d_1/kernel", "shape": [5, 48, 64], "dtype": "float32", "quantization": {"dtype": "uint8", "min": -11.071921449549057, "scale": 0.08582884844611673, "original_dtype": "float32"}}, {"name": "conv1d_1/bias", "shape": [64], "dtype": "float32", "quantization": {"dtype": "uint8", "min": -0.1181971497687639, "scale": 0.0008887003742012324, "original_dtype": "float32"}}, {"name": "conv1d_2/kernel", "shape": [3, 64, 96], "dtype": "float32", "quantization": {"dtype": "uint8", "min": -12.66893929126216, "scale": 0.09745337916355507, "original_dtype": "float32"}}, {"name": "conv1d_2/bias", "shape": [96], "dtype": "float32", "quantization": {"dtype": "uint8", "min": -0.10628087240106919, "scale": 0.0007380616138963138, "original_dtype": "float32"}}, {"name": "dense/kernel", "shape": [256, 345], "dtype": "float32", "quantization": {"dtype": "uint8", "min": -11.446145674761604, "scale": 0.09783030491249234, "original_dtype": "float32"}}, {"name": "dense/bias", "shape": [345], "dtype": "float32", "quantization": {"dtype": "uint8", "min": -1.317587095148423, "scale": 0.009411336393917308, "original_dtype": "float32"}}]}]}